…
      "\u001b[0;31mIndexError\u001b[0m: index 2 is out of bounds for axis 0 with size 2"
     ]
    }
   ],
   "source": [
    "for i in range(10):\n",
    "    print(predictions[i])"
   ]
  },
  {
   "cell_type": "code",
   "execution_count": 217,
   "metadata": {},
   "outputs": [
    {
     "name": "stdout",
     "output_type": "stream",
     "text": [
      "_________________________________________________________________\n",
      "Layer (type)                 Output Shape              Param #   \n",
      "=================================================================\n",
      "conv2d_71 (Conv2D)           (None, 124, 1284, 16)     416       \n",
      "_________________________________________________________________\n",
      "batch_normalization_3 (Batch (None, 124, 1284, 16)     64        \n",
      "_________________________________________________________________\n",
      "max_pooling2d_52 (MaxPooling (None, 62, 642, 16)       0         \n",
      "_________________________________________________________________\n",
      "conv2d_72 (Conv2D)           (None, 58, 638, 32)       12832     \n",
      "_________________________________________________________________\n",
      "batch_normalization_4 (Batch (None, 58, 638, 32)       128       \n",
      "_________________________________________________________________\n",
      "max_pooling2d_53 (MaxPooling (None, 29, 319, 32)       0         \n",
      "_________________________________________________________________\n",
      "conv2d_73 (Conv2D)           (None, 25, 315, 64)       51264     \n",
      "_________________________________________________________________\n",
      "flatten_23 (Flatten)         (None, 504000)            0         \n",
      "_________________________________________________________________\n",
      "dense_37 (Dense)             (None, 10)                5040010   \n",
      "=================================================================\n",
      "Total params: 5,104,714\n",
      "Trainable params: 5,104,618\n",
      "Non-trainable params: 96\n",
      "_________________________________________________________________\n"
     ]
    }
   ],
   "source": [
    "model.summary()"
   ]
  },
  {
   "cell_type": "code",
   "execution_count": 84,
   "metadata": {
…
